Linear_simulation_regression_example/BPnet.pth (torch, 2835 bytes, 3 tensors)

hidden1.weight f4 [10, 3]
0	0xb9ebf475	-0.00045004828
1	0x39900e36	0.00027476408
2	0x3bbcb7c9	0.0057592136
3	0x3e077e3e	0.13231751
4	0x3db5a717	0.088697605
5	0x3d282d87	0.041059043
6	0x399cf5f6	0.00029937894
7	0xb923f261	-0.00015635185
8	0xbb811d73	-0.003940278
9	0xba8fdd2e	-0.0010975951
10	0x39a3c472	0.00031236146
11	0x3c84a768	0.016193107
12	0xb9bab419	-0.00035610868
13	0x387f4a4c	6.0865932e-05
14	0x3b917859	0.0044393954
15	0x3d330115	0.043702204
16	0x3deb7027	0.11496001
17	0x3ead2aec	0.3382181
18	0xb8d43239	-0.000101183025
19	0xb82c3267	-4.1054936e-05
20	0x3b16a287	0.0022985057
21	0x38b55fdf	8.64861e-05
22	0x37ea7473	2.79492e-05
23	0xbaeb3b97	-0.0017946836
24	0x3784c6d3	1.5828211e-05
25	0x38e9aa44	0.0001114202
26	0xb90229ac	-0.0001241329
27	0x400ef04c	2.2334166
28	0x3fb982b9	1.4493018
29	0x3f090c7e	0.53534687

hidden1.bias f4 [10]
0	0xbaeea281	-0.0018206389
1	0x3f928c78	1.1449118
2	0x3a9fab2c	0.001218175
3	0xbba34c41	-0.0049834554
4	0xbaa9f33b	-0.0012966165
5	0xbe67d0bb	-0.22638218
6	0xba2f7690	-0.00066933874
7	0x3a0e4ce1	0.0005428326
8	0xb8213fd2	-3.844483e-05
9	0xc036a505	-2.853822

hidden2.weight f4 [1, 10]
0	0xb6ba370e	-5.549641e-06
1	0x3eb03201	0.3441315
2	0xb6c879b4	-5.9746326e-06
3	0xb78ca917	-1.676804e-05
4	0x343e3acb	1.7716518e-07
5	0xbb574f41	-0.0032853635
6	0x375ba2d4	1.3091329e-05
7	0x36657169	3.4189673e-06
8	0xb4ea2167	-4.36102e-07
9	0x3efb2f82	0.49059683
