Linear_simulation_classification_example/BPnet.pth (torch, 2899 bytes, 4 tensors)

hidden1.weight f4 [10, 3]
-1.6342931 -1.2240098 -0.525157 -1.6610687 -1.0195884 -0.2603908 -1.5985672 -1.0102527
-0.8888372 1.7194966 0.770101 0.53959423 1.5658518 0.8846216 0.29769915 -1.7131555
-1.074419 -0.3942659 1.8911777 0.9073228 0.5076779 -1.7361556 -0.80521226 -0.6688429
0.5110794 1.8954093 0.9305204 1.6740259 1.0240752 -0.3039681
00000000: 8430 d1bf 5aac 9cbf b070 06bf e69d d4bf
00000010: df81 82bf f151 85be da9d ccbf f64f 81bf
00000020: d68a 63bf 7718 dc3f 5725 453f d922 0a3f
00000030: d56d c83f 9076 623f 066c 983e ae48 dbbf
00000040: 9086 89bf 38dd c9be 1c12 f23f 4f46 683f
00000050: 2ef7 013f 593a debf 6422 4ebf 4a39 2bbf
00000060: 19d6 023f c69c f23f 9636 6e3f 7b46 d63f
00000070: e514 833f b5a1 9bbe

hidden1.bias f4 [10]
3.391958 3.1140635 3.2572699 -3.088333 -2.8971922 3.295844 -3.4113293 3.1885028
-2.5188887 -2.697811
00000000: d715 5940 d14c 4740 1c77 5040 3fa7 45c0
00000010: 996b 39c0 1cef 5240 3853 5ac0 6e10 4c40
00000020: 7935 21c0 efa8 2cc0

hidden2.weight f4 [2, 10]
-43.52722 -38.872753 -44.23349 37.078133 34.420074 -44.864662 46.5429 -38.603817
8.79206 13.403427 43.198933 38.889206 44.397026 -36.84294 -34.35815 44.890076
-46.16394 38.15345 -8.777426 -13.943939
00000000: e01b 2ec2 b37d 1bc2 18ef 30c2 0250 1442
00000010: 28ae 0942 6a75 33c2 ee2b 3a42 4f6a 1ac2
00000020: 47ac 0c41 7074 5641 b5cb 2c42 8c8e 1b42
00000030: 8e96 3142 2c5f 13c2 bf6e 09c2 708f 3342
00000040: e0a7 38c2 229d 1842 5670 0cc1 601a 5fc1

hidden2.bias f4 [2]
-1.9569168 2.0080411
00000000: 407c fabf bf83 0040
